Model: "deeplabv3plus"
__________________________________________________________________________________________________
Layer (type)                    Output Shape         Param #     Connected to                     
==================================================================================================
input_1 (InputLayer)            [(None, 256, 256, 3) 0                                            
__________________________________________________________________________________________________
entry_flow_conv1_1 (Conv2D)     (None, 128, 128, 32) 864         input_1[0][0]                    
__________________________________________________________________________________________________
entry_flow_conv1_1_BN (BatchNor (None, 128, 128, 32) 128         entry_flow_conv1_1[0][0]         
__________________________________________________________________________________________________
activation (Activation)         (None, 128, 128, 32) 0           entry_flow_conv1_1_BN[0][0]      
__________________________________________________________________________________________________
entry_flow_conv1_2 (Conv2D)     (None, 128, 128, 64) 18432       activation[0][0]                 
__________________________________________________________________________________________________
entry_flow_conv1_2_BN (BatchNor (None, 128, 128, 64) 256         entry_flow_conv1_2[0][0]         
__________________________________________________________________________________________________
activation_1 (Activation)       (None, 128, 128, 64) 0           entry_flow_conv1_2_BN[0][0]      
__________________________________________________________________________________________________
activation_2 (Activation)       (None, 128, 128, 64) 0           activation_1[0][0]               
__________________________________________________________________________________________________
entry_flow_block1_separable_con (None, 128, 128, 64) 576         activation_2[0][0]               
__________________________________________________________________________________________________
entry_flow_block1_separable_con (None, 128, 128, 64) 256         entry_flow_block1_separable_conv1
__________________________________________________________________________________________________
entry_flow_block1_separable_con (None, 128, 128, 128 8192        entry_flow_block1_separable_conv1
__________________________________________________________________________________________________
entry_flow_block1_separable_con (None, 128, 128, 128 512         entry_flow_block1_separable_conv1
…
entry_flow_block1_separable_con (None, 128, 128, 128 512         entry_flow_block1_separable_conv2
__________________________________________________________________________________________________
zero_padding2d (ZeroPadding2D)  (None, 130, 130, 128 0           entry_flow_block1_separable_conv2
__________________________________________________________________________________________________
activation_4 (Activation)       (None, 130, 130, 128 0           zero_padding2d[0][0]             
__________________________________________________________________________________________________
entry_flow_block1_separable_con (None, 64, 64, 128)  1152        activation_4[0][0]               
__________________________________________________________________________________________________
entry_flow_block1_separable_con (None, 64, 64, 128)  512         entry_flow_block1_separable_conv3
__________________________________________________________________________________________________
zero_padding2d_1 (ZeroPadding2D (None, 128, 128, 64) 0           activation_1[0][0]               
__________________________________________________________________________________________________
entry_flow_block1_separable_con (None, 64, 64, 128)  16384       entry_flow_block1_separable_conv3
__________________________________________________________________________________________________
entry_flow_block1_shortcut (Con (None, 64, 64, 128)  8192        zero_padding2d_1[0][0]           
__________________________________________________________________________________________________
entry_flow_block1_separable_con (None, 64, 64, 128)  512         entry_flow_block1_separable_conv3
__________________________________________________________________________________________________
entry_flow_block1_shortcut_BN ( (None, 64, 64, 128)  512         entry_flow_block1_shortcut[0][0] 
__________________________________________________________________________________________________
add (Add)                       (None, 64, 64, 128)  0           entry_flow_block1_separable_conv3
                                                                 entry_flow_block1_shortcut_BN[0][
__________________________________________________________________________________________________
activation_5 (Activation)       (None, 64, 64, 128)  0           add[0][0]                        
__________________________________________________________________________________________________
entry_flow_block2_separable_con (None, 64, 64, 128)  1152        activation_5[0][0]               
__________________________________________________________________________________________________
entry_flow_block2_separable_con (None, 64, 64, 128)  512         entry_flow_block2_separable_conv1
__________________________________________________________________________________________________
entry_flow_block2_separable_con (None, 64, 64, 256)  32768       entry_flow_block2_separable_conv1
__________________________________________________________________________________________________
entry_flow_block2_separable_con (None, 64, 64, 256)  1024        entry_flow_block2_separable_conv1
__________________________________________________________________________________________________
activation_6 (Activation)       (None, 64, 64, 256)  0           entry_flow_block2_separable_conv1
__________________________________________________________________________________________________
entry_flow_block2_separable_con (None, 64, 64, 256)  2304        activation_6[0][0]               
__________________________________________________________________________________________________
entry_flow_block2_separable_con (None, 64, 64, 256)  1024        entry_flow_block2_separable_conv2
__________________________________________________________________________________________________
entry_flow_block2_separable_con (None, 64, 64, 256)  65536       entry_flow_block2_separable_conv2
__________________________________________________________________________________________________
entry_flow_block2_separable_con (None, 64, 64, 256)  1024        entry_flow_block2_separable_conv2
__________________________________________________________________________________________________
zero_padding2d_2 (ZeroPadding2D (None, 66, 66, 256)  0           entry_flow_block2_separable_conv2
__________________________________________________________________________________________________
activation_7 (Activation)       (None, 66, 66, 256)  0           zero_padding2d_2[0][0]           
__________________________________________________________________________________________________
entry_flow_block2_separable_con (None, 32, 32, 256)  2304        activation_7[0][0]               
__________________________________________________________________________________________________
entry_flow_block2_separable_con (None, 32, 32, 256)  1024        entry_flow_block2_separable_conv3
__________________________________________________________________________________________________
zero_padding2d_3 (ZeroPadding2D (None, 64, 64, 128)  0           add[0][0]                        
__________________________________________________________________________________________________
entry_flow_block2_separable_con (None, 32, 32, 256)  65536       entry_flow_block2_separable_conv3
__________________________________________________________________________________________________
entry_flow_block2_shortcut (Con (None, 32, 32, 256)  32768       zero_padding2d_3[0][0]           
__________________________________________________________________________________________________
entry_flow_block2_separable_con (None, 32, 32, 256)  1024        entry_flow_block2_separable_conv3
__________________________________________________________________________________________________
entry_flow_block2_shortcut_BN ( (None, 32, 32, 256)  1024        entry_flow_block2_shortcut[0][0] 
__________________________________________________________________________________________________
add_1 (Add)                     (None, 32, 32, 256)  0           entry_flow_block2_separable_conv3
                                                                 entry_flow_block2_shortcut_BN[0][
__________________________________________________________________________________________________
activation_8 (Activation)       (None, 32, 32, 256)  0           add_1[0][0]                      
__________________________________________________________________________________________________
entry_flow_block3_separable_con (None, 32, 32, 256)  2304        activation_8[0][0]               
__________________________________________________________________________________________________
entry_flow_block3_separable_con (None, 32, 32, 256)  1024        entry_flow_block3_separable_conv1
__________________________________________________________________________________________________
entry_flow_block3_separable_con (None, 32, 32, 728)  186368      entry_flow_block3_separable_conv1
__________________________________________________________________________________________________
entry_flow_block3_separable_con (None, 32, 32, 728)  2912        entry_flow_block3_separable_conv1
__________________________________________________________________________________________________
activation_9 (Activation)       (None, 32, 32, 728)  0           entry_flow_block3_separable_conv1
__________________________________________________________________________________________________
entry_flow_block3_separable_con (None, 32, 32, 728)  6552        activation_9[0][0]               
__________________________________________________________________________________________________
entry_flow_block3_separable_con (None, 32, 32, 728)  2912        entry_flow_block3_separable_conv2
__________________________________________________________________________________________________
entry_flow_block3_separable_con (None, 32, 32, 728)  529984      entry_flow_block3_separable_conv2
__________________________________________________________________________________________________
entry_flow_block3_separable_con (None, 32, 32, 728)  2912        entry_flow_block3_separable_conv2
__________________________________________________________________________________________________
zero_padding2d_4 (ZeroPadding2D (None, 34, 34, 728)  0           entry_flow_block3_separable_conv2
__________________________________________________________________________________________________
activation_10 (Activation)      (None, 34, 34, 728)  0           zero_padding2d_4[0][0]           
__________________________________________________________________________________________________
entry_flow_block3_separable_con (None, 16, 16, 728)  6552        activation_10[0][0]              
__________________________________________________________________________________________________
entry_flow_block3_separable_con (None, 16, 16, 728)  2912        entry_flow_block3_separable_conv3
__________________________________________________________________________________________________
zero_padding2d_5 (ZeroPadding2D (None, 32, 32, 256)  0           add_1[0][0]                      
__________________________________________________________________________________________________
entry_flow_block3_separable_con (None, 16, 16, 728)  529984      entry_flow_block3_separable_conv3
__________________________________________________________________________________________________
entry_flow_block3_shortcut (Con (None, 16, 16, 728)  186368      zero_padding2d_5[0][0]           
__________________________________________________________________________________________________
entry_flow_block3_separable_con (None, 16, 16, 728)  2912        entry_flow_block3_separable_conv3
__________________________________________________________________________________________________
entry_flow_block3_shortcut_BN ( (None, 16, 16, 728)  2912        entry_flow_block3_shortcut[0][0] 
__________________________________________________________________________________________________
add_2 (Add)                     (None, 16, 16, 728)  0           entry_flow_block3_separable_conv3
                                                                 entry_flow_block3_shortcut_BN[0][
__________________________________________________________________________________________________
activation_11 (Activation)      (None, 16, 16, 728)  0           add_2[0][0]                      
__________________________________________________________________________________________________
middle_flow_unit_1_separable_co (None, 16, 16, 728)  6552        activation_11[0][0]              
__________________________________________________________________________________________________
middle_flow_unit_1_separable_co (None, 16, 16, 728)  2912        middle_flow_unit_1_separable_conv
__________________________________________________________________________________________________
middle_flow_unit_1_separable_co (None, 16, 16, 728)  529984      middle_flow_unit_1_separable_conv
__________________________________________________________________________________________________
middle_flow_unit_1_separable_co (None, 16, 16, 728)  2912        middle_flow_unit_1_separable_conv
__________________________________________________________________________________________________
activation_12 (Activation)      (None, 16, 16, 728)  0           middle_flow_unit_1_separable_conv
__________________________________________________________________________________________________
middle_flow_unit_1_separable_co (None, 16, 16, 728)  6552        activation_12[0][0]              
__________________________________________________________________________________________________
middle_flow_unit_1_separable_co (None, 16, 16, 728)  2912        middle_flow_unit_1_separable_conv
__________________________________________________________________________________________________
middle_flow_unit_1_separable_co (None, 16, 16, 728)  529984      middle_flow_unit_1_separable_conv
__________________________________________________________________________________________________
middle_flow_unit_1_separable_co (None, 16, 16, 728)  2912        middle_flow_unit_1_separable_conv
__________________________________________________________________________________________________
activation_13 (Activation)      (None, 16, 16, 728)  0           middle_flow_unit_1_separable_conv
__________________________________________________________________________________________________
middle_flow_unit_1_separable_co (None, 16, 16, 728)  6552        activation_13[0][0]              
__________________________________________________________________________________________________
middle_flow_unit_1_separable_co (None, 16, 16, 728)  2912        middle_flow_unit_1_separable_conv
__________________________________________________________________________________________________
middle_flow_unit_1_separable_co (None, 16, 16, 728)  529984      middle_flow_unit_1_separable_conv
__________________________________________________________________________________________________
middle_flow_unit_1_separable_co (None, 16, 16, 728)  2912        middle_flow_unit_1_separable_conv
__________________________________________________________________________________________________
add_3 (Add)                     (None, 16, 16, 728)  0           middle_flow_unit_1_separable_conv
                                                                 add_2[0][0]                      
__________________________________________________________________________________________________
activation_14 (Activation)      (None, 16, 16, 728)  0           add_3[0][0]                      
__________________________________________________________________________________________________
middle_flow_unit_2_separable_co (None, 16, 16, 728)  6552        activation_14[0][0]              
__________________________________________________________________________________________________
middle_flow_unit_2_separable_co (None, 16, 16, 728)  2912        middle_flow_unit_2_separable_conv
__________________________________________________________________________________________________
middle_flow_unit_2_separable_co (None, 16, 16, 728)  529984      middle_flow_unit_2_separable_conv
__________________________________________________________________________________________________
middle_flow_unit_2_separable_co (None, 16, 16, 728)  2912        middle_flow_unit_2_separable_conv
__________________________________________________________________________________________________
activation_15 (Activation)      (None, 16, 16, 728)  0           middle_flow_unit_2_separable_conv
__________________________________________________________________________________________________
middle_flow_unit_2_separable_co (None, 16, 16, 728)  6552        activation_15[0][0]              
__________________________________________________________________________________________________
middle_flow_unit_2_separable_co (None, 16, 16, 728)  2912        middle_flow_unit_2_separable_conv
__________________________________________________________________________________________________
middle_flow_unit_2_separable_co (None, 16, 16, 728)  529984      middle_flow_unit_2_separable_conv
__________________________________________________________________________________________________
middle_flow_unit_2_separable_co (None, 16, 16, 728)  2912        middle_flow_unit_2_separable_conv
__________________________________________________________________________________________________
activation_16 (Activation)      (None, 16, 16, 728)  0           middle_flow_unit_2_separable_conv
__________________________________________________________________________________________________
middle_flow_unit_2_separable_co (None, 16, 16, 728)  6552        activation_16[0][0]              
__________________________________________________________________________________________________
middle_flow_unit_2_separable_co (None, 16, 16, 728)  2912        middle_flow_unit_2_separable_conv
__________________________________________________________________________________________________
middle_flow_unit_2_separable_co (None, 16, 16, 728)  529984      middle_flow_unit_2_separable_conv
__________________________________________________________________________________________________
middle_flow_unit_2_separable_co (None, 16, 16, 728)  2912        middle_flow_unit_2_separable_conv
__________________________________________________________________________________________________
add_4 (Add)                     (None, 16, 16, 728)  0           middle_flow_unit_2_separable_conv
                                                                 add_3[0][0]                      
__________________________________________________________________________________________________
activation_17 (Activation)      (None, 16, 16, 728)  0           add_4[0][0]                      
__________________________________________________________________________________________________
middle_flow_unit_3_separable_co (None, 16, 16, 728)  6552        activation_17[0][0]              
__________________________________________________________________________________________________
middle_flow_unit_3_separable_co (None, 16, 16, 728)  2912        middle_flow_unit_3_separable_conv
__________________________________________________________________________________________________
middle_flow_unit_3_separable_co (None, 16, 16, 728)  529984      middle_flow_unit_3_separable_conv
__________________________________________________________________________________________________
middle_flow_unit_3_separable_co (None, 16, 16, 728)  2912        middle_flow_unit_3_separable_conv
__________________________________________________________________________________________________
activation_18 (Activation)      (None, 16, 16, 728)  0           middle_flow_unit_3_separable_conv
__________________________________________________________________________________________________
middle_flow_unit_3_separable_co (None, 16, 16, 728)  6552        activation_18[0][0]              
__________________________________________________________________________________________________
middle_flow_unit_3_separable_co (None, 16, 16, 728)  2912        middle_flow_unit_3_separable_conv
__________________________________________________________________________________________________
middle_flow_unit_3_separable_co (None, 16, 16, 728)  529984      middle_flow_unit_3_separable_conv
__________________________________________________________________________________________________
middle_flow_unit_3_separable_co (None, 16, 16, 728)  2912        middle_flow_unit_3_separable_conv
__________________________________________________________________________________________________
activation_19 (Activation)      (None, 16, 16, 728)  0           middle_flow_unit_3_separable_conv
__________________________________________________________________________________________________
middle_flow_unit_3_separable_co (None, 16, 16, 728)  6552        activation_19[0][0]              
__________________________________________________________________________________________________
middle_flow_unit_3_separable_co (None, 16, 16, 728)  2912        middle_flow_unit_3_separable_conv
__________________________________________________________________________________________________
middle_flow_unit_3_separable_co (None, 16, 16, 728)  529984      middle_flow_unit_3_separable_conv
__________________________________________________________________________________________________
middle_flow_unit_3_separable_co (None, 16, 16, 728)  2912        middle_flow_unit_3_separable_conv
__________________________________________________________________________________________________
add_5 (Add)                     (None, 16, 16, 728)  0           middle_flow_unit_3_separable_conv
                                                                 add_4[0][0]                      
__________________________________________________________________________________________________
activation_20 (Activation)      (None, 16, 16, 728)  0           add_5[0][0]                      
__________________________________________________________________________________________________
middle_flow_unit_4_separable_co (None, 16, 16, 728)  6552        activation_20[0][0]              
__________________________________________________________________________________________________
middle_flow_unit_4_separable_co (None, 16, 16, 728)  2912        middle_flow_unit_4_separable_conv
__________________________________________________________________________________________________
middle_flow_unit_4_separable_co (None, 16, 16, 728)  529984      middle_flow_unit_4_separable_conv
__________________________________________________________________________________________________
middle_flow_unit_4_separable_co (None, 16, 16, 728)  2912        middle_flow_unit_4_separable_conv
__________________________________________________________________________________________________
activation_21 (Activation)      (None, 16, 16, 728)  0           middle_flow_unit_4_separable_conv
__________________________________________________________________________________________________
middle_flow_unit_4_separable_co (None, 16, 16, 728)  6552        activation_21[0][0]              
__________________________________________________________________________________________________
middle_flow_unit_4_separable_co (None, 16, 16, 728)  2912        middle_flow_unit_4_separable_conv
__________________________________________________________________________________________________
middle_flow_unit_4_separable_co (None, 16, 16, 728)  529984      middle_flow_unit_4_separable_conv
__________________________________________________________________________________________________
middle_flow_unit_4_separable_co (None, 16, 16, 728)  2912        middle_flow_unit_4_separable_conv
__________________________________________________________________________________________________
activation_22 (Activation)      (None, 16, 16, 728)  0           middle_flow_unit_4_separable_conv
__________________________________________________________________________________________________
middle_flow_unit_4_separable_co (None, 16, 16, 728)  6552        activation_22[0][0]              
__________________________________________________________________________________________________
middle_flow_unit_4_separable_co (None, 16, 16, 728)  2912        middle_flow_unit_4_separable_conv
__________________________________________________________________________________________________
middle_flow_unit_4_separable_co (None, 16, 16, 728)  529984      middle_flow_unit_4_separable_conv
__________________________________________________________________________________________________
middle_flow_unit_4_separable_co (None, 16, 16, 728)  2912        middle_flow_unit_4_separable_conv
__________________________________________________________________________________________________
add_6 (Add)                     (None, 16, 16, 728)  0           middle_flow_unit_4_separable_conv
                                                                 add_5[0][0]                      
__________________________________________________________________________________________________
activation_23 (Activation)      (None, 16, 16, 728)  0           add_6[0][0]                      
__________________________________________________________________________________________________
middle_flow_unit_5_separable_co (None, 16, 16, 728)  6552        activation_23[0][0]              
__________________________________________________________________________________________________
middle_flow_unit_5_separable_co (None, 16, 16, 728)  2912        middle_flow_unit_5_separable_conv
__________________________________________________________________________________________________
middle_flow_unit_5_separable_co (None, 16, 16, 728)  529984      middle_flow_unit_5_separable_conv
__________________________________________________________________________________________________
middle_flow_unit_5_separable_co (None, 16, 16, 728)  2912        middle_flow_unit_5_separable_conv
__________________________________________________________________________________________________
activation_24 (Activation)      (None, 16, 16, 728)  0           middle_flow_unit_5_separable_conv
__________________________________________________________________________________________________
middle_flow_unit_5_separable_co (None, 16, 16, 728)  6552        activation_24[0][0]              
__________________________________________________________________________________________________
middle_flow_unit_5_separable_co (None, 16, 16, 728)  2912        middle_flow_unit_5_separable_conv
__________________________________________________________________________________________________
middle_flow_unit_5_separable_co (None, 16, 16, 728)  529984      middle_flow_unit_5_separable_conv
__________________________________________________________________________________________________
middle_flow_unit_5_separable_co (None, 16, 16, 728)  2912        middle_flow_unit_5_separable_conv
__________________________________________________________________________________________________
activation_25 (Activation)      (None, 16, 16, 728)  0           middle_flow_unit_5_separable_conv
__________________________________________________________________________________________________
middle_flow_unit_5_separable_co (None, 16, 16, 728)  6552        activation_25[0][0]              
__________________________________________________________________________________________________
middle_flow_unit_5_separable_co (None, 16, 16, 728)  2912        middle_flow_unit_5_separable_conv
__________________________________________________________________________________________________
middle_flow_unit_5_separable_co (None, 16, 16, 728)  529984      middle_flow_unit_5_separable_conv
__________________________________________________________________________________________________
middle_flow_unit_5_separable_co (None, 16, 16, 728)  2912        middle_flow_unit_5_separable_conv
__________________________________________________________________________________________________
add_7 (Add)                     (None, 16, 16, 728)  0           middle_flow_unit_5_separable_conv
                                                                 add_6[0][0]                      
__________________________________________________________________________________________________
activation_26 (Activation)      (None, 16, 16, 728)  0           add_7[0][0]                      
__________________________________________________________________________________________________
middle_flow_unit_6_separable_co (None, 16, 16, 728)  6552        activation_26[0][0]              
__________________________________________________________________________________________________
middle_flow_unit_6_separable_co (None, 16, 16, 728)  2912        middle_flow_unit_6_separable_conv
__________________________________________________________________________________________________
middle_flow_unit_6_separable_co (None, 16, 16, 728)  529984      middle_flow_unit_6_separable_conv
__________________________________________________________________________________________________
middle_flow_unit_6_separable_co (None, 16, 16, 728)  2912        middle_flow_unit_6_separable_conv
__________________________________________________________________________________________________
activation_27 (Activation)      (None, 16, 16, 728)  0           middle_flow_unit_6_separable_conv
__________________________________________________________________________________________________
middle_flow_unit_6_separable_co (None, 16, 16, 728)  6552        activation_27[0][0]              
__________________________________________________________________________________________________
middle_flow_unit_6_separable_co (None, 16, 16, 728)  2912        middle_flow_unit_6_separable_conv
__________________________________________________________________________________________________
middle_flow_unit_6_separable_co (None, 16, 16, 728)  529984      middle_flow_unit_6_separable_conv
__________________________________________________________________________________________________
middle_flow_unit_6_separable_co (None, 16, 16, 728)  2912        middle_flow_unit_6_separable_conv
__________________________________________________________________________________________________
activation_28 (Activation)      (None, 16, 16, 728)  0           middle_flow_unit_6_separable_conv
__________________________________________________________________________________________________
middle_flow_unit_6_separable_co (None, 16, 16, 728)  6552        activation_28[0][0]              
__________________________________________________________________________________________________
middle_flow_unit_6_separable_co (None, 16, 16, 728)  2912        middle_flow_unit_6_separable_conv
__________________________________________________________________________________________________
middle_flow_unit_6_separable_co (None, 16, 16, 728)  529984      middle_flow_unit_6_separable_conv
__________________________________________________________________________________________________
middle_flow_unit_6_separable_co (None, 16, 16, 728)  2912        middle_flow_unit_6_separable_conv
__________________________________________________________________________________________________
add_8 (Add)                     (None, 16, 16, 728)  0           middle_flow_unit_6_separable_conv
                                                                 add_7[0][0]                      
__________________________________________________________________________________________________
activation_29 (Activation)      (None, 16, 16, 728)  0           add_8[0][0]                      
__________________________________________________________________________________________________
middle_flow_unit_7_separable_co (None, 16, 16, 728)  6552        activation_29[0][0]              
__________________________________________________________________________________________________
middle_flow_unit_7_separable_co (None, 16, 16, 728)  2912        middle_flow_unit_7_separable_conv
__________________________________________________________________________________________________
middle_flow_unit_7_separable_co (None, 16, 16, 728)  529984      middle_flow_unit_7_separable_conv
__________________________________________________________________________________________________
middle_flow_unit_7_separable_co (None, 16, 16, 728)  2912        middle_flow_unit_7_separable_conv
__________________________________________________________________________________________________
activation_30 (Activation)      (None, 16, 16, 728)  0           middle_flow_unit_7_separable_conv
__________________________________________________________________________________________________
middle_flow_unit_7_separable_co (None, 16, 16, 728)  6552        activation_30[0][0]              
__________________________________________________________________________________________________
middle_flow_unit_7_separable_co (None, 16, 16, 728)  2912        middle_flow_unit_7_separable_conv
__________________________________________________________________________________________________
middle_flow_unit_7_separable_co (None, 16, 16, 728)  529984      middle_flow_unit_7_separable_conv
__________________________________________________________________________________________________
middle_flow_unit_7_separable_co (None, 16, 16, 728)  2912        middle_flow_unit_7_separable_conv
__________________________________________________________________________________________________
activation_31 (Activation)      (None, 16, 16, 728)  0           middle_flow_unit_7_separable_conv
__________________________________________________________________________________________________
middle_flow_unit_7_separable_co (None, 16, 16, 728)  6552        activation_31[0][0]              
__________________________________________________________________________________________________
middle_flow_unit_7_separable_co (None, 16, 16, 728)  2912        middle_flow_unit_7_separable_conv
__________________________________________________________________________________________________
middle_flow_unit_7_separable_co (None, 16, 16, 728)  529984      middle_flow_unit_7_separable_conv
__________________________________________________________________________________________________
middle_flow_unit_7_separable_co (None, 16, 16, 728)  2912        middle_flow_unit_7_separable_conv
__________________________________________________________________________________________________
add_9 (Add)                     (None, 16, 16, 728)  0           middle_flow_unit_7_separable_conv
                                                                 add_8[0][0]                      
__________________________________________________________________________________________________
activation_32 (Activation)      (None, 16, 16, 728)  0           add_9[0][0]                      
__________________________________________________________________________________________________
middle_flow_unit_8_separable_co (None, 16, 16, 728)  6552        activation_32[0][0]              
__________________________________________________________________________________________________
middle_flow_unit_8_separable_co (None, 16, 16, 728)  2912        middle_flow_unit_8_separable_conv
__________________________________________________________________________________________________
middle_flow_unit_8_separable_co (None, 16, 16, 728)  529984      middle_flow_unit_8_separable_conv
__________________________________________________________________________________________________
middle_flow_unit_8_separable_co (None, 16, 16, 728)  2912        middle_flow_unit_8_separable_conv
__________________________________________________________________________________________________
activation_33 (Activation)      (None, 16, 16, 728)  0           middle_flow_unit_8_separable_conv
__________________________________________________________________________________________________
middle_flow_unit_8_separable_co (None, 16, 16, 728)  6552        activation_33[0][0]              
__________________________________________________________________________________________________
middle_flow_unit_8_separable_co (None, 16, 16, 728)  2912        middle_flow_unit_8_separable_conv
__________________________________________________________________________________________________
middle_flow_unit_8_separable_co (None, 16, 16, 728)  529984      middle_flow_unit_8_separable_conv
__________________________________________________________________________________________________
middle_flow_unit_8_separable_co (None, 16, 16, 728)  2912        middle_flow_unit_8_separable_conv
__________________________________________________________________________________________________
activation_34 (Activation)      (None, 16, 16, 728)  0           middle_flow_unit_8_separable_conv
__________________________________________________________________________________________________
middle_flow_unit_8_separable_co (None, 16, 16, 728)  6552        activation_34[0][0]              
__________________________________________________________________________________________________
middle_flow_unit_8_separable_co (None, 16, 16, 728)  2912        middle_flow_unit_8_separable_conv
__________________________________________________________________________________________________
middle_flow_unit_8_separable_co (None, 16, 16, 728)  529984      middle_flow_unit_8_separable_conv
__________________________________________________________________________________________________
middle_flow_unit_8_separable_co (None, 16, 16, 728)  2912        middle_flow_unit_8_separable_conv
__________________________________________________________________________________________________
add_10 (Add)                    (None, 16, 16, 728)  0           middle_flow_unit_8_separable_conv
                                                                 add_9[0][0]                      
__________________________________________________________________________________________________
activation_35 (Activation)      (None, 16, 16, 728)  0           add_10[0][0]                     
__________________________________________________________________________________________________
middle_flow_unit_9_separable_co (None, 16, 16, 728)  6552        activation_35[0][0]              
__________________________________________________________________________________________________
middle_flow_unit_9_separable_co (None, 16, 16, 728)  2912        middle_flow_unit_9_separable_conv
__________________________________________________________________________________________________
middle_flow_unit_9_separable_co (None, 16, 16, 728)  529984      middle_flow_unit_9_separable_conv
__________________________________________________________________________________________________
middle_flow_unit_9_separable_co (None, 16, 16, 728)  2912        middle_flow_unit_9_separable_conv
__________________________________________________________________________________________________
activation_36 (Activation)      (None, 16, 16, 728)  0           middle_flow_unit_9_separable_conv
__________________________________________________________________________________________________
middle_flow_unit_9_separable_co (None, 16, 16, 728)  6552        activation_36[0][0]              
__________________________________________________________________________________________________
middle_flow_unit_9_separable_co (None, 16, 16, 728)  2912        middle_flow_unit_9_separable_conv
__________________________________________________________________________________________________
middle_flow_unit_9_separable_co (None, 16, 16, 728)  529984      middle_flow_unit_9_separable_conv
__________________________________________________________________________________________________
middle_flow_unit_9_separable_co (None, 16, 16, 728)  2912        middle_flow_unit_9_separable_conv
__________________________________________________________________________________________________
activation_37 (Activation)      (None, 16, 16, 728)  0           middle_flow_unit_9_separable_conv
__________________________________________________________________________________________________
middle_flow_unit_9_separable_co (None, 16, 16, 728)  6552        activation_37[0][0]              
__________________________________________________________________________________________________
middle_flow_unit_9_separable_co (None, 16, 16, 728)  2912        middle_flow_unit_9_separable_conv
__________________________________________________________________________________________________
middle_flow_unit_9_separable_co (None, 16, 16, 728)  529984      middle_flow_unit_9_separable_conv
__________________________________________________________________________________________________
middle_flow_unit_9_separable_co (None, 16, 16, 728)  2912        middle_flow_unit_9_separable_conv
__________________________________________________________________________________________________
add_11 (Add)                    (None, 16, 16, 728)  0           middle_flow_unit_9_separable_conv
                                                                 add_10[0][0]                     
__________________________________________________________________________________________________
activation_38 (Activation)      (None, 16, 16, 728)  0           add_11[0][0]                     
__________________________________________________________________________________________________
middle_flow_unit_10_separable_c (None, 16, 16, 728)  6552        activation_38[0][0]              
__________________________________________________________________________________________________
middle_flow_unit_10_separable_c (None, 16, 16, 728)  2912        middle_flow_unit_10_separable_con
__________________________________________________________________________________________________
middle_flow_unit_10_separable_c (None, 16, 16, 728)  529984      middle_flow_unit_10_separable_con
__________________________________________________________________________________________________
middle_flow_unit_10_separable_c (None, 16, 16, 728)  2912        middle_flow_unit_10_separable_con
__________________________________________________________________________________________________
activation_39 (Activation)      (None, 16, 16, 728)  0           middle_flow_unit_10_separable_con
__________________________________________________________________________________________________
middle_flow_unit_10_separable_c (None, 16, 16, 728)  6552        activation_39[0][0]              
__________________________________________________________________________________________________
middle_flow_unit_10_separable_c (None, 16, 16, 728)  2912        middle_flow_unit_10_separable_con
__________________________________________________________________________________________________
middle_flow_unit_10_separable_c (None, 16, 16, 728)  529984      middle_flow_unit_10_separable_con
__________________________________________________________________________________________________
middle_flow_unit_10_separable_c (None, 16, 16, 728)  2912        middle_flow_unit_10_separable_con
__________________________________________________________________________________________________
activation_40 (Activation)      (None, 16, 16, 728)  0           middle_flow_unit_10_separable_con
__________________________________________________________________________________________________
middle_flow_unit_10_separable_c (None, 16, 16, 728)  6552        activation_40[0][0]              
__________________________________________________________________________________________________
middle_flow_unit_10_separable_c (None, 16, 16, 728)  2912        middle_flow_unit_10_separable_con
__________________________________________________________________________________________________
middle_flow_unit_10_separable_c (None, 16, 16, 728)  529984      middle_flow_unit_10_separable_con
__________________________________________________________________________________________________
middle_flow_unit_10_separable_c (None, 16, 16, 728)  2912        middle_flow_unit_10_separable_con
__________________________________________________________________________________________________
add_12 (Add)                    (None, 16, 16, 728)  0           middle_flow_unit_10_separable_con
                                                                 add_11[0][0]                     
__________________________________________________________________________________________________
activation_41 (Activation)      (None, 16, 16, 728)  0           add_12[0][0]                     
__________________________________________________________________________________________________
middle_flow_unit_11_separable_c (None, 16, 16, 728)  6552        activation_41[0][0]              
__________________________________________________________________________________________________
middle_flow_unit_11_separable_c (None, 16, 16, 728)  2912        middle_flow_unit_11_separable_con
__________________________________________________________________________________________________
middle_flow_unit_11_separable_c (None, 16, 16, 728)  529984      middle_flow_unit_11_separable_con
__________________________________________________________________________________________________
middle_flow_unit_11_separable_c (None, 16, 16, 728)  2912        middle_flow_unit_11_separable_con
__________________________________________________________________________________________________
activation_42 (Activation)      (None, 16, 16, 728)  0           middle_flow_unit_11_separable_con
__________________________________________________________________________________________________
middle_flow_unit_11_separable_c (None, 16, 16, 728)  6552        activation_42[0][0]              
__________________________________________________________________________________________________
middle_flow_unit_11_separable_c (None, 16, 16, 728)  2912        middle_flow_unit_11_separable_con
__________________________________________________________________________________________________
middle_flow_unit_11_separable_c (None, 16, 16, 728)  529984      middle_flow_unit_11_separable_con
__________________________________________________________________________________________________
middle_flow_unit_11_separable_c (None, 16, 16, 728)  2912        middle_flow_unit_11_separable_con
__________________________________________________________________________________________________
activation_43 (Activation)      (None, 16, 16, 728)  0           middle_flow_unit_11_separable_con
__________________________________________________________________________________________________
middle_flow_unit_11_separable_c (None, 16, 16, 728)  6552        activation_43[0][0]              
__________________________________________________________________________________________________
middle_flow_unit_11_separable_c (None, 16, 16, 728)  2912        middle_flow_unit_11_separable_con
__________________________________________________________________________________________________
middle_flow_unit_11_separable_c (None, 16, 16, 728)  529984      middle_flow_unit_11_separable_con
__________________________________________________________________________________________________
middle_flow_unit_11_separable_c (None, 16, 16, 728)  2912        middle_flow_unit_11_separable_con
__________________________________________________________________________________________________
add_13 (Add)                    (None, 16, 16, 728)  0           middle_flow_unit_11_separable_con
                                                                 add_12[0][0]                     
__________________________________________________________________________________________________
activation_44 (Activation)      (None, 16, 16, 728)  0           add_13[0][0]                     
__________________________________________________________________________________________________
middle_flow_unit_12_separable_c (None, 16, 16, 728)  6552        activation_44[0][0]              
__________________________________________________________________________________________________
middle_flow_unit_12_separable_c (None, 16, 16, 728)  2912        middle_flow_unit_12_separable_con
__________________________________________________________________________________________________
middle_flow_unit_12_separable_c (None, 16, 16, 728)  529984      middle_flow_unit_12_separable_con
__________________________________________________________________________________________________
middle_flow_unit_12_separable_c (None, 16, 16, 728)  2912        middle_flow_unit_12_separable_con
__________________________________________________________________________________________________
activation_45 (Activation)      (None, 16, 16, 728)  0           middle_flow_unit_12_separable_con
__________________________________________________________________________________________________
middle_flow_unit_12_separable_c (None, 16, 16, 728)  6552        activation_45[0][0]              
__________________________________________________________________________________________________
middle_flow_unit_12_separable_c (None, 16, 16, 728)  2912        middle_flow_unit_12_separable_con
__________________________________________________________________________________________________
middle_flow_unit_12_separable_c (None, 16, 16, 728)  529984      middle_flow_unit_12_separable_con
__________________________________________________________________________________________________
middle_flow_unit_12_separable_c (None, 16, 16, 728)  2912        middle_flow_unit_12_separable_con
__________________________________________________________________________________________________
activation_46 (Activation)      (None, 16, 16, 728)  0           middle_flow_unit_12_separable_con
__________________________________________________________________________________________________
middle_flow_unit_12_separable_c (None, 16, 16, 728)  6552        activation_46[0][0]              
__________________________________________________________________________________________________
middle_flow_unit_12_separable_c (None, 16, 16, 728)  2912        middle_flow_unit_12_separable_con
__________________________________________________________________________________________________
middle_flow_unit_12_separable_c (None, 16, 16, 728)  529984      middle_flow_unit_12_separable_con
__________________________________________________________________________________________________
middle_flow_unit_12_separable_c (None, 16, 16, 728)  2912        middle_flow_unit_12_separable_con
__________________________________________________________________________________________________
add_14 (Add)                    (None, 16, 16, 728)  0           middle_flow_unit_12_separable_con
                                                                 add_13[0][0]                     
__________________________________________________________________________________________________
activation_47 (Activation)      (None, 16, 16, 728)  0           add_14[0][0]                     
__________________________________________________________________________________________________
middle_flow_unit_13_separable_c (None, 16, 16, 728)  6552        activation_47[0][0]              
__________________________________________________________________________________________________
middle_flow_unit_13_separable_c (None, 16, 16, 728)  2912        middle_flow_unit_13_separable_con
__________________________________________________________________________________________________
middle_flow_unit_13_separable_c (None, 16, 16, 728)  529984      middle_flow_unit_13_separable_con
__________________________________________________________________________________________________
middle_flow_unit_13_separable_c (None, 16, 16, 728)  2912        middle_flow_unit_13_separable_con
__________________________________________________________________________________________________
activation_48 (Activation)      (None, 16, 16, 728)  0           middle_flow_unit_13_separable_con
__________________________________________________________________________________________________
middle_flow_unit_13_separable_c (None, 16, 16, 728)  6552        activation_48[0][0]              
__________________________________________________________________________________________________
middle_flow_unit_13_separable_c (None, 16, 16, 728)  2912        middle_flow_unit_13_separable_con
__________________________________________________________________________________________________
middle_flow_unit_13_separable_c (None, 16, 16, 728)  529984      middle_flow_unit_13_separable_con
__________________________________________________________________________________________________
middle_flow_unit_13_separable_c (None, 16, 16, 728)  2912        middle_flow_unit_13_separable_con
__________________________________________________________________________________________________
activation_49 (Activation)      (None, 16, 16, 728)  0           middle_flow_unit_13_separable_con
__________________________________________________________________________________________________
middle_flow_unit_13_separable_c (None, 16, 16, 728)  6552        activation_49[0][0]              
__________________________________________________________________________________________________
middle_flow_unit_13_separable_c (None, 16, 16, 728)  2912        middle_flow_unit_13_separable_con
__________________________________________________________________________________________________
middle_flow_unit_13_separable_c (None, 16, 16, 728)  529984      middle_flow_unit_13_separable_con
__________________________________________________________________________________________________
middle_flow_unit_13_separable_c (None, 16, 16, 728)  2912        middle_flow_unit_13_separable_con
__________________________________________________________________________________________________
add_15 (Add)                    (None, 16, 16, 728)  0           middle_flow_unit_13_separable_con
                                                                 add_14[0][0]                     
__________________________________________________________________________________________________
activation_50 (Activation)      (None, 16, 16, 728)  0           add_15[0][0]                     
__________________________________________________________________________________________________
middle_flow_unit_14_separable_c (None, 16, 16, 728)  6552        activation_50[0][0]              
__________________________________________________________________________________________________
middle_flow_unit_14_separable_c (None, 16, 16, 728)  2912        middle_flow_unit_14_separable_con
__________________________________________________________________________________________________
middle_flow_unit_14_separable_c (None, 16, 16, 728)  529984      middle_flow_unit_14_separable_con
__________________________________________________________________________________________________
middle_flow_unit_14_separable_c (None, 16, 16, 728)  2912        middle_flow_unit_14_separable_con
__________________________________________________________________________________________________
activation_51 (Activation)      (None, 16, 16, 728)  0           middle_flow_unit_14_separable_con
__________________________________________________________________________________________________
middle_flow_unit_14_separable_c (None, 16, 16, 728)  6552        activation_51[0][0]              
__________________________________________________________________________________________________
middle_flow_unit_14_separable_c (None, 16, 16, 728)  2912        middle_flow_unit_14_separable_con
__________________________________________________________________________________________________
middle_flow_unit_14_separable_c (None, 16, 16, 728)  529984      middle_flow_unit_14_separable_con
__________________________________________________________________________________________________
middle_flow_unit_14_separable_c (None, 16, 16, 728)  2912        middle_flow_unit_14_separable_con
__________________________________________________________________________________________________
activation_52 (Activation)      (None, 16, 16, 728)  0           middle_flow_unit_14_separable_con
__________________________________________________________________________________________________
middle_flow_unit_14_separable_c (None, 16, 16, 728)  6552        activation_52[0][0]              
__________________________________________________________________________________________________
middle_flow_unit_14_separable_c (None, 16, 16, 728)  2912        middle_flow_unit_14_separable_con
__________________________________________________________________________________________________
middle_flow_unit_14_separable_c (None, 16, 16, 728)  529984      middle_flow_unit_14_separable_con
__________________________________________________________________________________________________
middle_flow_unit_14_separable_c (None, 16, 16, 728)  2912        middle_flow_unit_14_separable_con
__________________________________________________________________________________________________
add_16 (Add)                    (None, 16, 16, 728)  0           middle_flow_unit_14_separable_con
                                                                 add_15[0][0]                     
__________________________________________________________________________________________________
activation_53 (Activation)      (None, 16, 16, 728)  0           add_16[0][0]                     
__________________________________________________________________________________________________
middle_flow_unit_15_separable_c (None, 16, 16, 728)  6552        activation_53[0][0]              
__________________________________________________________________________________________________
middle_flow_unit_15_separable_c (None, 16, 16, 728)  2912        middle_flow_unit_15_separable_con
__________________________________________________________________________________________________
middle_flow_unit_15_separable_c (None, 16, 16, 728)  529984      middle_flow_unit_15_separable_con
__________________________________________________________________________________________________
middle_flow_unit_15_separable_c (None, 16, 16, 728)  2912        middle_flow_unit_15_separable_con
__________________________________________________________________________________________________
activation_54 (Activation)      (None, 16, 16, 728)  0           middle_flow_unit_15_separable_con
__________________________________________________________________________________________________
middle_flow_unit_15_separable_c (None, 16, 16, 728)  6552        activation_54[0][0]              
__________________________________________________________________________________________________
middle_flow_unit_15_separable_c (None, 16, 16, 728)  2912        middle_flow_unit_15_separable_con
__________________________________________________________________________________________________
middle_flow_unit_15_separable_c (None, 16, 16, 728)  529984      middle_flow_unit_15_separable_con
__________________________________________________________________________________________________
middle_flow_unit_15_separable_c (None, 16, 16, 728)  2912        middle_flow_unit_15_separable_con
__________________________________________________________________________________________________
activation_55 (Activation)      (None, 16, 16, 728)  0           middle_flow_unit_15_separable_con
__________________________________________________________________________________________________
middle_flow_unit_15_separable_c (None, 16, 16, 728)  6552        activation_55[0][0]              
__________________________________________________________________________________________________
middle_flow_unit_15_separable_c (None, 16, 16, 728)  2912        middle_flow_unit_15_separable_con
__________________________________________________________________________________________________
middle_flow_unit_15_separable_c (None, 16, 16, 728)  529984      middle_flow_unit_15_separable_con
__________________________________________________________________________________________________
middle_flow_unit_15_separable_c (None, 16, 16, 728)  2912        middle_flow_unit_15_separable_con
__________________________________________________________________________________________________
add_17 (Add)                    (None, 16, 16, 728)  0           middle_flow_unit_15_separable_con
                                                                 add_16[0][0]                     
__________________________________________________________________________________________________
activation_56 (Activation)      (None, 16, 16, 728)  0           add_17[0][0]                     
__________________________________________________________________________________________________
middle_flow_unit_16_separable_c (None, 16, 16, 728)  6552        activation_56[0][0]              
__________________________________________________________________________________________________
middle_flow_unit_16_separable_c (None, 16, 16, 728)  2912        middle_flow_unit_16_separable_con
__________________________________________________________________________________________________
middle_flow_unit_16_separable_c (None, 16, 16, 728)  529984      middle_flow_unit_16_separable_con
__________________________________________________________________________________________________
middle_flow_unit_16_separable_c (None, 16, 16, 728)  2912        middle_flow_unit_16_separable_con
__________________________________________________________________________________________________
activation_57 (Activation)      (None, 16, 16, 728)  0           middle_flow_unit_16_separable_con
__________________________________________________________________________________________________
middle_flow_unit_16_separable_c (None, 16, 16, 728)  6552        activation_57[0][0]              
__________________________________________________________________________________________________
middle_flow_unit_16_separable_c (None, 16, 16, 728)  2912        middle_flow_unit_16_separable_con
__________________________________________________________________________________________________
middle_flow_unit_16_separable_c (None, 16, 16, 728)  529984      middle_flow_unit_16_separable_con
__________________________________________________________________________________________________
middle_flow_unit_16_separable_c (None, 16, 16, 728)  2912        middle_flow_unit_16_separable_con
__________________________________________________________________________________________________
activation_58 (Activation)      (None, 16, 16, 728)  0           middle_flow_unit_16_separable_con
__________________________________________________________________________________________________
middle_flow_unit_16_separable_c (None, 16, 16, 728)  6552        activation_58[0][0]              
__________________________________________________________________________________________________
middle_flow_unit_16_separable_c (None, 16, 16, 728)  2912        middle_flow_unit_16_separable_con
__________________________________________________________________________________________________
middle_flow_unit_16_separable_c (None, 16, 16, 728)  529984      middle_flow_unit_16_separable_con
__________________________________________________________________________________________________
middle_flow_unit_16_separable_c (None, 16, 16, 728)  2912        middle_flow_unit_16_separable_con
__________________________________________________________________________________________________
add_18 (Add)                    (None, 16, 16, 728)  0           middle_flow_unit_16_separable_con
                                                                 add_17[0][0]                     
__________________________________________________________________________________________________
activation_59 (Activation)      (None, 16, 16, 728)  0           add_18[0][0]                     
__________________________________________________________________________________________________
exit_flow_block1_separable_conv (None, 16, 16, 728)  6552        activation_59[0][0]              
__________________________________________________________________________________________________
exit_flow_block1_separable_conv (None, 16, 16, 728)  2912        exit_flow_block1_separable_conv1_
__________________________________________________________________________________________________
exit_flow_block1_separable_conv (None, 16, 16, 728)  529984      exit_flow_block1_separable_conv1_
__________________________________________________________________________________________________
exit_flow_block1_separable_conv (None, 16, 16, 728)  2912        exit_flow_block1_separable_conv1_
__________________________________________________________________________________________________
activation_60 (Activation)      (None, 16, 16, 728)  0           exit_flow_block1_separable_conv1_
__________________________________________________________________________________________________
exit_flow_block1_separable_conv (None, 16, 16, 728)  6552        activation_60[0][0]              
__________________________________________________________________________________________________
exit_flow_block1_separable_conv (None, 16, 16, 728)  2912        exit_flow_block1_separable_conv2_
__________________________________________________________________________________________________
exit_flow_block1_separable_conv (None, 16, 16, 1024) 745472      exit_flow_block1_separable_conv2_
__________________________________________________________________________________________________
exit_flow_block1_separable_conv (None, 16, 16, 1024) 4096        exit_flow_block1_separable_conv2_
__________________________________________________________________________________________________
activation_61 (Activation)      (None, 16, 16, 1024) 0           exit_flow_block1_separable_conv2_
__________________________________________________________________________________________________
exit_flow_block1_separable_conv (None, 16, 16, 1024) 9216        activation_61[0][0]              
__________________________________________________________________________________________________
exit_flow_block1_separable_conv (None, 16, 16, 1024) 4096        exit_flow_block1_separable_conv3_
__________________________________________________________________________________________________
exit_flow_block1_separable_conv (None, 16, 16, 1024) 1048576     exit_flow_block1_separable_conv3_
__________________________________________________________________________________________________
exit_flow_block1_shortcut (Conv (None, 16, 16, 1024) 745472      add_18[0][0]                     
__________________________________________________________________________________________________
exit_flow_block1_separable_conv (None, 16, 16, 1024) 4096        exit_flow_block1_separable_conv3_
__________________________________________________________________________________________________
exit_flow_block1_shortcut_BN (B (None, 16, 16, 1024) 4096        exit_flow_block1_shortcut[0][0]  
__________________________________________________________________________________________________
add_19 (Add)                    (None, 16, 16, 1024) 0           exit_flow_block1_separable_conv3_
                                                                 exit_flow_block1_shortcut_BN[0][0
__________________________________________________________________________________________________
exit_flow_block2_separable_conv (None, 16, 16, 1024) 9216        add_19[0][0]                     
__________________________________________________________________________________________________
exit_flow_block2_separable_conv (None, 16, 16, 1024) 4096        exit_flow_block2_separable_conv1_
__________________________________________________________________________________________________
activation_62 (Activation)      (None, 16, 16, 1024) 0           exit_flow_block2_separable_conv1_
__________________________________________________________________________________________________
exit_flow_block2_separable_conv (None, 16, 16, 1536) 1572864     activation_62[0][0]              
__________________________________________________________________________________________________
exit_flow_block2_separable_conv (None, 16, 16, 1536) 6144        exit_flow_block2_separable_conv1_
__________________________________________________________________________________________________
activation_63 (Activation)      (None, 16, 16, 1536) 0           exit_flow_block2_separable_conv1_
__________________________________________________________________________________________________
exit_flow_block2_separable_conv (None, 16, 16, 1536) 13824       activation_63[0][0]              
__________________________________________________________________________________________________
exit_flow_block2_separable_conv (None, 16, 16, 1536) 6144        exit_flow_block2_separable_conv2_
__________________________________________________________________________________________________
activation_64 (Activation)      (None, 16, 16, 1536) 0           exit_flow_block2_separable_conv2_
__________________________________________________________________________________________________
exit_flow_block2_separable_conv (None, 16, 16, 1536) 2359296     activation_64[0][0]              
__________________________________________________________________________________________________
exit_flow_block2_separable_conv (None, 16, 16, 1536) 6144        exit_flow_block2_separable_conv2_
__________________________________________________________________________________________________
activation_65 (Activation)      (None, 16, 16, 1536) 0           exit_flow_block2_separable_conv2_
__________________________________________________________________________________________________
exit_flow_block2_separable_conv (None, 16, 16, 1536) 13824       activation_65[0][0]              
__________________________________________________________________________________________________
exit_flow_block2_separable_conv (None, 16, 16, 1536) 6144        exit_flow_block2_separable_conv3_
__________________________________________________________________________________________________
activation_66 (Activation)      (None, 16, 16, 1536) 0           exit_flow_block2_separable_conv3_
__________________________________________________________________________________________________
exit_flow_block2_separable_conv (None, 16, 16, 2048) 3145728     activation_66[0][0]              
__________________________________________________________________________________________________
exit_flow_block2_separable_conv (None, 16, 16, 2048) 8192        exit_flow_block2_separable_conv3_
__________________________________________________________________________________________________
activation_67 (Activation)      (None, 16, 16, 2048) 0           exit_flow_block2_separable_conv3_
__________________________________________________________________________________________________
global_average_pooling2d (Globa (None, 2048)         0           activation_67[0][0]              
__________________________________________________________________________________________________
lambda (Lambda)                 (None, 1, 2048)      0           global_average_pooling2d[0][0]   
__________________________________________________________________________________________________
aspp1_depthwise (DepthwiseConv2 (None, 16, 16, 2048) 18432       activation_67[0][0]              
__________________________________________________________________________________________________
aspp2_depthwise (DepthwiseConv2 (None, 16, 16, 2048) 18432       activation_67[0][0]              
__________________________________________________________________________________________________
aspp3_depthwise (DepthwiseConv2 (None, 16, 16, 2048) 18432       activation_67[0][0]              
__________________________________________________________________________________________________
lambda_1 (Lambda)               (None, 1, 1, 2048)   0           lambda[0][0]                     
__________________________________________________________________________________________________
aspp1_depthwise_BN (BatchNormal (None, 16, 16, 2048) 8192        aspp1_depthwise[0][0]            
__________________________________________________________________________________________________
aspp2_depthwise_BN (BatchNormal (None, 16, 16, 2048) 8192        aspp2_depthwise[0][0]            
__________________________________________________________________________________________________
aspp3_depthwise_BN (BatchNormal (None, 16, 16, 2048) 8192        aspp3_depthwise[0][0]            
__________________________________________________________________________________________________
image_pooling (Conv2D)          (None, 1, 1, 256)    524288      lambda_1[0][0]                   
__________________________________________________________________________________________________
activation_69 (Activation)      (None, 16, 16, 2048) 0           aspp1_depthwise_BN[0][0]         
__________________________________________________________________________________________________
activation_71 (Activation)      (None, 16, 16, 2048) 0           aspp2_depthwise_BN[0][0]         
__________________________________________________________________________________________________
activation_73 (Activation)      (None, 16, 16, 2048) 0           aspp3_depthwise_BN[0][0]         
__________________________________________________________________________________________________
image_pooling_BN (BatchNormaliz (None, 1, 1, 256)    1024        image_pooling[0][0]              
__________________________________________________________________________________________________
aspp0 (Conv2D)                  (None, 16, 16, 256)  524288      activation_67[0][0]              
__________________________________________________________________________________________________
aspp1_pointwise (Conv2D)        (None, 16, 16, 256)  524288      activation_69[0][0]              
__________________________________________________________________________________________________
aspp2_pointwise (Conv2D)        (None, 16, 16, 256)  524288      activation_71[0][0]              
__________________________________________________________________________________________________
aspp3_pointwise (Conv2D)        (None, 16, 16, 256)  524288      activation_73[0][0]              
__________________________________________________________________________________________________
activation_68 (Activation)      (None, 1, 1, 256)    0           image_pooling_BN[0][0]           
__________________________________________________________________________________________________
aspp0_BN (BatchNormalization)   (None, 16, 16, 256)  1024        aspp0[0][0]                      
__________________________________________________________________________________________________
aspp1_pointwise_BN (BatchNormal (None, 16, 16, 256)  1024        aspp1_pointwise[0][0]            
__________________________________________________________________________________________________
aspp2_pointwise_BN (BatchNormal (None, 16, 16, 256)  1024        aspp2_pointwise[0][0]            
__________________________________________________________________________________________________
aspp3_pointwise_BN (BatchNormal (None, 16, 16, 256)  1024        aspp3_pointwise[0][0]            
__________________________________________________________________________________________________
lambda_2 (Lambda)               (None, 16, 16, 256)  0           activation_68[0][0]              
__________________________________________________________________________________________________
aspp0_activation (Activation)   (None, 16, 16, 256)  0           aspp0_BN[0][0]                   
__________________________________________________________________________________________________
activation_70 (Activation)      (None, 16, 16, 256)  0           aspp1_pointwise_BN[0][0]         
__________________________________________________________________________________________________
activation_72 (Activation)      (None, 16, 16, 256)  0           aspp2_pointwise_BN[0][0]         
__________________________________________________________________________________________________
activation_74 (Activation)      (None, 16, 16, 256)  0           aspp3_pointwise_BN[0][0]         
__________________________________________________________________________________________________
concatenate (Concatenate)       (None, 16, 16, 1280) 0           lambda_2[0][0]                   
                                                                 aspp0_activation[0][0]           
                                                                 activation_70[0][0]              
                                                                 activation_72[0][0]              
                                                                 activation_74[0][0]              
__________________________________________________________________________________________________
concat_projection (Conv2D)      (None, 16, 16, 256)  327680      concatenate[0][0]                
__________________________________________________________________________________________________
concat_projection_BN (BatchNorm (None, 16, 16, 256)  1024        concat_projection[0][0]          
__________________________________________________________________________________________________
activation_75 (Activation)      (None, 16, 16, 256)  0           concat_projection_BN[0][0]       
__________________________________________________________________________________________________
feature_projection0 (Conv2D)    (None, 64, 64, 48)   12288       entry_flow_block2_separable_conv2
__________________________________________________________________________________________________
dropout (Dropout)               (None, 16, 16, 256)  0           activation_75[0][0]              
__________________________________________________________________________________________________
feature_projection0_BN (BatchNo (None, 64, 64, 48)   192         feature_projection0[0][0]        
__________________________________________________________________________________________________
lambda_3 (Lambda)               (None, 64, 64, 256)  0           dropout[0][0]                    
__________________________________________________________________________________________________
activation_76 (Activation)      (None, 64, 64, 48)   0           feature_projection0_BN[0][0]     
__________________________________________________________________________________________________
concatenate_1 (Concatenate)     (None, 64, 64, 304)  0           lambda_3[0][0]                   
                                                                 activation_76[0][0]              
__________________________________________________________________________________________________
decoder_conv0_depthwise (Depthw (None, 64, 64, 304)  2736        concatenate_1[0][0]              
__________________________________________________________________________________________________
decoder_conv0_depthwise_BN (Bat (None, 64, 64, 304)  1216        decoder_conv0_depthwise[0][0]    
__________________________________________________________________________________________________
activation_77 (Activation)      (None, 64, 64, 304)  0           decoder_conv0_depthwise_BN[0][0] 
__________________________________________________________________________________________________
decoder_conv0_pointwise (Conv2D (None, 64, 64, 256)  77824       activation_77[0][0]              
__________________________________________________________________________________________________
decoder_conv0_pointwise_BN (Bat (None, 64, 64, 256)  1024        decoder_conv0_pointwise[0][0]    
__________________________________________________________________________________________________
activation_78 (Activation)      (None, 64, 64, 256)  0           decoder_conv0_pointwise_BN[0][0] 
__________________________________________________________________________________________________
decoder_conv1_depthwise (Depthw (None, 64, 64, 256)  2304        activation_78[0][0]              
__________________________________________________________________________________________________
decoder_conv1_depthwise_BN (Bat (None, 64, 64, 256)  1024        decoder_conv1_depthwise[0][0]    
__________________________________________________________________________________________________
activation_79 (Activation)      (None, 64, 64, 256)  0           decoder_conv1_depthwise_BN[0][0] 
__________________________________________________________________________________________________
decoder_conv1_pointwise (Conv2D (None, 64, 64, 256)  65536       activation_79[0][0]              
__________________________________________________________________________________________________
decoder_conv1_pointwise_BN (Bat (None, 64, 64, 256)  1024        decoder_conv1_pointwise[0][0]    
__________________________________________________________________________________________________
activation_80 (Activation)      (None, 64, 64, 256)  0           decoder_conv1_pointwise_BN[0][0] 
__________________________________________________________________________________________________
custom_logits_semantic (Conv2D) (None, 64, 64, 1)    257         activation_80[0][0]              
__________________________________________________________________________________________________
lambda_4 (Lambda)               (None, 256, 256, 1)  0           custom_logits_semantic[0][0]     
__________________________________________________________________________________________________
activation_81 (Activation)      (None, 256, 256, 1)  0           lambda_4[0][0]                   
==================================================================================================
Total params: 41,253,073
Trainable params: 41,050,273
Non-trainable params: 202,800
__________________________________________________________________________________________________